…
sv_coord_shift (InputLayer)     [(None, 16, 1)]      0                                            
__________________________________________________________________________________________________
sv_points (InputLayer)          [(None, 16, 2)]      0                                            
__________________________________________________________________________________________________
charged_constituents (InputLaye [(None, 64, 25)]     0                                            
__________________________________________________________________________________________________
ch_add_1 (Add)                  (None, 64, 2)        0           charged_coord_shift[0][0]        
                                                                 charged_points[0][0]             
__________________________________________________________________________________________________
neutral_constituents (InputLaye [(None, 64, 11)]     0                                            
__________________________________________________________________________________________________
ne_add_1 (Add)                  (None, 64, 2)        0           neutral_coord_shift[0][0]        
                                                                 neutral_points[0][0]             
__________________________________________________________________________________________________
secondary_vertices (InputLayer) [(None, 16, 10)]     0                                            
__________________________________________________________________________________________________
sv_add_1 (Add)                  (None, 16, 2)        0           sv_coord_shift[0][0]             
                                                                 sv_points[0][0]                  
__________________________________________________________________________________________________
ch_edge_conv_1_knn (KNearestNei (None, 64, 16, 50)   0           ch_add_1[0][0]                   
                                                                 charged_constituents[0][0]       
__________________________________________________________________________________________________
ne_edge_conv_1_knn (KNearestNei (None, 64, 16, 22)   0           ne_add_1[0][0]                   
                                                                 neutral_constituents[0][0]       
__________________________________________________________________________________________________
sv_edge_conv_1_knn (KNearestNei (None, 16, 8, 20)    0           sv_add_1[0][0]                   
                                                                 secondary_vertices[0][0]         
__________________________________________________________________________________________________
ch_edge_conv_1_conv_1 (Conv2D)  (None, 64, 16, 16)   800         ch_edge_conv_1_knn[0][0]         
__________________________________________________________________________________________________
ne_edge_conv_1_conv_1 (Conv2D)  (None, 64, 16, 16)   352         ne_edge_conv_1_knn[0][0]         
__________________________________________________________________________________________________
sv_edge_conv_1_conv_1 (Conv2D)  (None, 16, 8, 8)     160         sv_edge_conv_1_knn[0][0]         
__________________________________________________________________________________________________
ch_edge_conv_1_batchnorm_1 (Bat (None, 64, 16, 16)   64          ch_edge_conv_1_conv_1[0][0]      
__________________________________________________________________________________________________
ne_edge_conv_1_batchnorm_1 (Bat (None, 64, 16, 16)   64          ne_edge_conv_1_conv_1[0][0]      
__________________________________________________________________________________________________
sv_edge_conv_1_batchnorm_1 (Bat (None, 16, 8, 8)     32          sv_edge_conv_1_conv_1[0][0]      
__________________________________________________________________________________________________
ch_edge_conv_1_activation_1 (Ac (None, 64, 16, 16)   0           ch_edge_conv_1_batchnorm_1[0][0] 
__________________________________________________________________________________________________
ne_edge_conv_1_activation_1 (Ac (None, 64, 16, 16)   0           ne_edge_conv_1_batchnorm_1[0][0] 
__________________________________________________________________________________________________
sv_edge_conv_1_activation_1 (Ac (None, 16, 8, 8)     0           sv_edge_conv_1_batchnorm_1[0][0] 
__________________________________________________________________________________________________
ch_edge_conv_1_shortcut_expand  (None, 64, 1, 25)    0           charged_constituents[0][0]       
__________________________________________________________________________________________________
ch_edge_conv_1_conv_2 (Conv2D)  (None, 64, 16, 16)   256         ch_edge_conv_1_activation_1[0][0]
__________________________________________________________________________________________________
ne_edge_conv_1_shortcut_expand  (None, 64, 1, 11)    0           neutral_constituents[0][0]       
__________________________________________________________________________________________________
ne_edge_conv_1_conv_2 (Conv2D)  (None, 64, 16, 16)   256         ne_edge_conv_1_activation_1[0][0]
__________________________________________________________________________________________________
sv_edge_conv_1_shortcut_expand  (None, 16, 1, 10)    0           secondary_vertices[0][0]         
__________________________________________________________________________________________________
sv_edge_conv_1_conv_2 (Conv2D)  (None, 16, 8, 8)     64          sv_edge_conv_1_activation_1[0][0]
__________________________________________________________________________________________________
ch_edge_conv_1_shortcut_conv (C (None, 64, 1, 16)    400         ch_edge_conv_1_shortcut_expand[0]
__________________________________________________________________________________________________
ch_edge_conv_1_batchnorm_2 (Bat (None, 64, 16, 16)   64          ch_edge_conv_1_conv_2[0][0]      
__________________________________________________________________________________________________
ne_edge_conv_1_shortcut_conv (C (None, 64, 1, 16)    176         ne_edge_conv_1_shortcut_expand[0]
__________________________________________________________________________________________________
ne_edge_conv_1_batchnorm_2 (Bat (None, 64, 16, 16)   64          ne_edge_conv_1_conv_2[0][0]      
__________________________________________________________________________________________________
sv_edge_conv_1_shortcut_conv (C (None, 16, 1, 8)     80          sv_edge_conv_1_shortcut_expand[0]
__________________________________________________________________________________________________
sv_edge_conv_1_batchnorm_2 (Bat (None, 16, 8, 8)     32          sv_edge_conv_1_conv_2[0][0]      
__________________________________________________________________________________________________
ch_edge_conv_1_shortcut_batchno (None, 64, 1, 16)    64          ch_edge_conv_1_shortcut_conv[0][0
__________________________________________________________________________________________________
ch_edge_conv_1_activation_2 (Ac (None, 64, 16, 16)   0           ch_edge_conv_1_batchnorm_2[0][0] 
__________________________________________________________________________________________________
ne_edge_conv_1_shortcut_batchno (None, 64, 1, 16)    64          ne_edge_conv_1_shortcut_conv[0][0
__________________________________________________________________________________________________
ne_edge_conv_1_activation_2 (Ac (None, 64, 16, 16)   0           ne_edge_conv_1_batchnorm_2[0][0] 
__________________________________________________________________________________________________
sv_edge_conv_1_shortcut_batchno (None, 16, 1, 8)     32          sv_edge_conv_1_shortcut_conv[0][0
__________________________________________________________________________________________________
sv_edge_conv_1_activation_2 (Ac (None, 16, 8, 8)     0           sv_edge_conv_1_batchnorm_2[0][0] 
__________________________________________________________________________________________________
ch_edge_conv_1_shortcut_squeeze (None, 64, 16)       0           ch_edge_conv_1_shortcut_batchnorm
__________________________________________________________________________________________________
ch_edge_conv_1_mean (Mean)      (None, 64, 16)       0           ch_edge_conv_1_activation_2[0][0]
__________________________________________________________________________________________________
ne_edge_conv_1_shortcut_squeeze (None, 64, 16)       0           ne_edge_conv_1_shortcut_batchnorm
__________________________________________________________________________________________________
ne_edge_conv_1_mean (Mean)      (None, 64, 16)       0           ne_edge_conv_1_activation_2[0][0]
__________________________________________________________________________________________________
sv_edge_conv_1_shortcut_squeeze (None, 16, 8)        0           sv_edge_conv_1_shortcut_batchnorm
__________________________________________________________________________________________________
sv_edge_conv_1_mean (Mean)      (None, 16, 8)        0           sv_edge_conv_1_activation_2[0][0]
__________________________________________________________________________________________________
ch_edge_conv_1_add (Add)        (None, 64, 16)       0           ch_edge_conv_1_shortcut_squeeze[0
                                                                 ch_edge_conv_1_mean[0][0]        
__________________________________________________________________________________________________
ne_edge_conv_1_add (Add)        (None, 64, 16)       0           ne_edge_conv_1_shortcut_squeeze[0
                                                                 ne_edge_conv_1_mean[0][0]        
__________________________________________________________________________________________________
sv_edge_conv_1_add (Add)        (None, 16, 8)        0           sv_edge_conv_1_shortcut_squeeze[0
                                                                 sv_edge_conv_1_mean[0][0]        
__________________________________________________________________________________________________
ch_edge_conv_1_activation (Acti (None, 64, 16)       0           ch_edge_conv_1_add[0][0]         
__________________________________________________________________________________________________
ne_edge_conv_1_activation (Acti (None, 64, 16)       0           ne_edge_conv_1_add[0][0]         
__________________________________________________________________________________________________
sv_edge_conv_1_activation (Acti (None, 16, 8)        0           sv_edge_conv_1_add[0][0]         
__________________________________________________________________________________________________
ch_add_2 (Add)                  (None, 64, 16)       0           charged_coord_shift[0][0]        
                                                                 ch_edge_conv_1_activation[0][0]  
__________________________________________________________________________________________________
ne_add_2 (Add)                  (None, 64, 16)       0           neutral_coord_shift[0][0]        
                                                                 ne_edge_conv_1_activation[0][0]  
__________________________________________________________________________________________________
sv_add_2 (Add)                  (None, 16, 8)        0           sv_coord_shift[0][0]             
                                                                 sv_edge_conv_1_activation[0][0]  
__________________________________________________________________________________________________
ch_edge_conv_2_knn (KNearestNei (None, 64, 16, 32)   0           ch_add_2[0][0]                   
                                                                 ch_edge_conv_1_activation[0][0]  
__________________________________________________________________________________________________
ne_edge_conv_2_knn (KNearestNei (None, 64, 16, 32)   0           ne_add_2[0][0]                   
                                                                 ne_edge_conv_1_activation[0][0]  
__________________________________________________________________________________________________
sv_edge_conv_2_knn (KNearestNei (None, 16, 8, 16)    0           sv_add_2[0][0]                   
                                                                 sv_edge_conv_1_activation[0][0]  
__________________________________________________________________________________________________
ch_edge_conv_2_conv_1 (Conv2D)  (None, 64, 16, 32)   1024        ch_edge_conv_2_knn[0][0]         
__________________________________________________________________________________________________
ne_edge_conv_2_conv_1 (Conv2D)  (None, 64, 16, 32)   1024        ne_edge_conv_2_knn[0][0]         
__________________________________________________________________________________________________
sv_edge_conv_2_conv_1 (Conv2D)  (None, 16, 8, 16)    256         sv_edge_conv_2_knn[0][0]         
__________________________________________________________________________________________________
ch_edge_conv_2_batchnorm_1 (Bat (None, 64, 16, 32)   128         ch_edge_conv_2_conv_1[0][0]      
__________________________________________________________________________________________________
ne_edge_conv_2_batchnorm_1 (Bat (None, 64, 16, 32)   128         ne_edge_conv_2_conv_1[0][0]      
__________________________________________________________________________________________________
sv_edge_conv_2_batchnorm_1 (Bat (None, 16, 8, 16)    64          sv_edge_conv_2_conv_1[0][0]      
__________________________________________________________________________________________________
ch_edge_conv_2_activation_1 (Ac (None, 64, 16, 32)   0           ch_edge_conv_2_batchnorm_1[0][0] 
__________________________________________________________________________________________________
ne_edge_conv_2_activation_1 (Ac (None, 64, 16, 32)   0           ne_edge_conv_2_batchnorm_1[0][0] 
__________________________________________________________________________________________________
sv_edge_conv_2_activation_1 (Ac (None, 16, 8, 16)    0           sv_edge_conv_2_batchnorm_1[0][0] 
__________________________________________________________________________________________________
ch_edge_conv_2_shortcut_expand  (None, 64, 1, 16)    0           ch_edge_conv_1_activation[0][0]  
__________________________________________________________________________________________________
ch_edge_conv_2_conv_2 (Conv2D)  (None, 64, 16, 32)   1024        ch_edge_conv_2_activation_1[0][0]
__________________________________________________________________________________________________
ne_edge_conv_2_shortcut_expand  (None, 64, 1, 16)    0           ne_edge_conv_1_activation[0][0]  
__________________________________________________________________________________________________
ne_edge_conv_2_conv_2 (Conv2D)  (None, 64, 16, 32)   1024        ne_edge_conv_2_activation_1[0][0]
__________________________________________________________________________________________________
sv_edge_conv_2_shortcut_expand  (None, 16, 1, 8)     0           sv_edge_conv_1_activation[0][0]  
__________________________________________________________________________________________________
sv_edge_conv_2_conv_2 (Conv2D)  (None, 16, 8, 16)    256         sv_edge_conv_2_activation_1[0][0]
__________________________________________________________________________________________________
ch_edge_conv_2_shortcut_conv (C (None, 64, 1, 32)    512         ch_edge_conv_2_shortcut_expand[0]
__________________________________________________________________________________________________
ch_edge_conv_2_batchnorm_2 (Bat (None, 64, 16, 32)   128         ch_edge_conv_2_conv_2[0][0]      
__________________________________________________________________________________________________
ne_edge_conv_2_shortcut_conv (C (None, 64, 1, 32)    512         ne_edge_conv_2_shortcut_expand[0]
__________________________________________________________________________________________________
ne_edge_conv_2_batchnorm_2 (Bat (None, 64, 16, 32)   128         ne_edge_conv_2_conv_2[0][0]      
__________________________________________________________________________________________________
sv_edge_conv_2_shortcut_conv (C (None, 16, 1, 16)    128         sv_edge_conv_2_shortcut_expand[0]
__________________________________________________________________________________________________
sv_edge_conv_2_batchnorm_2 (Bat (None, 16, 8, 16)    64          sv_edge_conv_2_conv_2[0][0]      
__________________________________________________________________________________________________
ch_edge_conv_2_shortcut_batchno (None, 64, 1, 32)    128         ch_edge_conv_2_shortcut_conv[0][0
__________________________________________________________________________________________________
ch_edge_conv_2_activation_2 (Ac (None, 64, 16, 32)   0           ch_edge_conv_2_batchnorm_2[0][0] 
__________________________________________________________________________________________________
ne_edge_conv_2_shortcut_batchno (None, 64, 1, 32)    128         ne_edge_conv_2_shortcut_conv[0][0
__________________________________________________________________________________________________
ne_edge_conv_2_activation_2 (Ac (None, 64, 16, 32)   0           ne_edge_conv_2_batchnorm_2[0][0] 
__________________________________________________________________________________________________
sv_edge_conv_2_shortcut_batchno (None, 16, 1, 16)    64          sv_edge_conv_2_shortcut_conv[0][0
__________________________________________________________________________________________________
sv_edge_conv_2_activation_2 (Ac (None, 16, 8, 16)    0           sv_edge_conv_2_batchnorm_2[0][0] 
__________________________________________________________________________________________________
ch_edge_conv_2_shortcut_squeeze (None, 64, 32)       0           ch_edge_conv_2_shortcut_batchnorm
__________________________________________________________________________________________________
ch_edge_conv_2_mean (Mean)      (None, 64, 32)       0           ch_edge_conv_2_activation_2[0][0]
__________________________________________________________________________________________________
ne_edge_conv_2_shortcut_squeeze (None, 64, 32)       0           ne_edge_conv_2_shortcut_batchnorm
__________________________________________________________________________________________________
ne_edge_conv_2_mean (Mean)      (None, 64, 32)       0           ne_edge_conv_2_activation_2[0][0]
__________________________________________________________________________________________________
sv_edge_conv_2_shortcut_squeeze (None, 16, 16)       0           sv_edge_conv_2_shortcut_batchnorm
__________________________________________________________________________________________________
sv_edge_conv_2_mean (Mean)      (None, 16, 16)       0           sv_edge_conv_2_activation_2[0][0]
__________________________________________________________________________________________________
ch_edge_conv_2_add (Add)        (None, 64, 32)       0           ch_edge_conv_2_shortcut_squeeze[0
                                                                 ch_edge_conv_2_mean[0][0]        
__________________________________________________________________________________________________
ne_edge_conv_2_add (Add)        (None, 64, 32)       0           ne_edge_conv_2_shortcut_squeeze[0
                                                                 ne_edge_conv_2_mean[0][0]        
__________________________________________________________________________________________________
sv_edge_conv_2_add (Add)        (None, 16, 16)       0           sv_edge_conv_2_shortcut_squeeze[0
                                                                 sv_edge_conv_2_mean[0][0]        
__________________________________________________________________________________________________
ch_edge_conv_2_activation (Acti (None, 64, 32)       0           ch_edge_conv_2_add[0][0]         
__________________________________________________________________________________________________
ne_edge_conv_2_activation (Acti (None, 64, 32)       0           ne_edge_conv_2_add[0][0]         
__________________________________________________________________________________________________
sv_edge_conv_2_activation (Acti (None, 16, 16)       0           sv_edge_conv_2_add[0][0]         
__________________________________________________________________________________________________
ch_add_3 (Add)                  (None, 64, 32)       0           charged_coord_shift[0][0]        
                                                                 ch_edge_conv_2_activation[0][0]  
__________________________________________________________________________________________________
ne_add_3 (Add)                  (None, 64, 32)       0           neutral_coord_shift[0][0]        
                                                                 ne_edge_conv_2_activation[0][0]  
__________________________________________________________________________________________________
sv_add_3 (Add)                  (None, 16, 16)       0           sv_coord_shift[0][0]             
                                                                 sv_edge_conv_2_activation[0][0]  
__________________________________________________________________________________________________
ch_edge_conv_3_knn (KNearestNei (None, 64, 16, 64)   0           ch_add_3[0][0]                   
                                                                 ch_edge_conv_2_activation[0][0]  
__________________________________________________________________________________________________
ne_edge_conv_3_knn (KNearestNei (None, 64, 16, 64)   0           ne_add_3[0][0]                   
                                                                 ne_edge_conv_2_activation[0][0]  
__________________________________________________________________________________________________
sv_edge_conv_3_knn (KNearestNei (None, 16, 8, 32)    0           sv_add_3[0][0]                   
                                                                 sv_edge_conv_2_activation[0][0]  
__________________________________________________________________________________________________
ch_edge_conv_3_conv_1 (Conv2D)  (None, 64, 16, 48)   3072        ch_edge_conv_3_knn[0][0]         
__________________________________________________________________________________________________
ne_edge_conv_3_conv_1 (Conv2D)  (None, 64, 16, 48)   3072        ne_edge_conv_3_knn[0][0]         
__________________________________________________________________________________________________
sv_edge_conv_3_conv_1 (Conv2D)  (None, 16, 8, 24)    768         sv_edge_conv_3_knn[0][0]         
__________________________________________________________________________________________________
ch_edge_conv_3_batchnorm_1 (Bat (None, 64, 16, 48)   192         ch_edge_conv_3_conv_1[0][0]      
__________________________________________________________________________________________________
ne_edge_conv_3_batchnorm_1 (Bat (None, 64, 16, 48)   192         ne_edge_conv_3_conv_1[0][0]      
__________________________________________________________________________________________________
sv_edge_conv_3_batchnorm_1 (Bat (None, 16, 8, 24)    96          sv_edge_conv_3_conv_1[0][0]      
__________________________________________________________________________________________________
ch_edge_conv_3_activation_1 (Ac (None, 64, 16, 48)   0           ch_edge_conv_3_batchnorm_1[0][0] 
__________________________________________________________________________________________________
ne_edge_conv_3_activation_1 (Ac (None, 64, 16, 48)   0           ne_edge_conv_3_batchnorm_1[0][0] 
__________________________________________________________________________________________________
sv_edge_conv_3_activation_1 (Ac (None, 16, 8, 24)    0           sv_edge_conv_3_batchnorm_1[0][0] 
__________________________________________________________________________________________________
ch_edge_conv_3_shortcut_expand  (None, 64, 1, 32)    0           ch_edge_conv_2_activation[0][0]  
__________________________________________________________________________________________________
ch_edge_conv_3_conv_2 (Conv2D)  (None, 64, 16, 48)   2304        ch_edge_conv_3_activation_1[0][0]
__________________________________________________________________________________________________
ne_edge_conv_3_shortcut_expand  (None, 64, 1, 32)    0           ne_edge_conv_2_activation[0][0]  
__________________________________________________________________________________________________
ne_edge_conv_3_conv_2 (Conv2D)  (None, 64, 16, 48)   2304        ne_edge_conv_3_activation_1[0][0]
__________________________________________________________________________________________________
sv_edge_conv_3_shortcut_expand  (None, 16, 1, 16)    0           sv_edge_conv_2_activation[0][0]  
__________________________________________________________________________________________________
sv_edge_conv_3_conv_2 (Conv2D)  (None, 16, 8, 24)    576         sv_edge_conv_3_activation_1[0][0]
__________________________________________________________________________________________________
ch_edge_conv_3_shortcut_conv (C (None, 64, 1, 48)    1536        ch_edge_conv_3_shortcut_expand[0]
__________________________________________________________________________________________________
ch_edge_conv_3_batchnorm_2 (Bat (None, 64, 16, 48)   192         ch_edge_conv_3_conv_2[0][0]      
__________________________________________________________________________________________________
ne_edge_conv_3_shortcut_conv (C (None, 64, 1, 48)    1536        ne_edge_conv_3_shortcut_expand[0]
__________________________________________________________________________________________________
ne_edge_conv_3_batchnorm_2 (Bat (None, 64, 16, 48)   192         ne_edge_conv_3_conv_2[0][0]      
__________________________________________________________________________________________________
sv_edge_conv_3_shortcut_conv (C (None, 16, 1, 24)    384         sv_edge_conv_3_shortcut_expand[0]
__________________________________________________________________________________________________
sv_edge_conv_3_batchnorm_2 (Bat (None, 16, 8, 24)    96          sv_edge_conv_3_conv_2[0][0]      
__________________________________________________________________________________________________
ch_edge_conv_3_shortcut_batchno (None, 64, 1, 48)    192         ch_edge_conv_3_shortcut_conv[0][0
__________________________________________________________________________________________________
ch_edge_conv_3_activation_2 (Ac (None, 64, 16, 48)   0           ch_edge_conv_3_batchnorm_2[0][0] 
__________________________________________________________________________________________________
ne_edge_conv_3_shortcut_batchno (None, 64, 1, 48)    192         ne_edge_conv_3_shortcut_conv[0][0
__________________________________________________________________________________________________
ne_edge_conv_3_activation_2 (Ac (None, 64, 16, 48)   0           ne_edge_conv_3_batchnorm_2[0][0] 
__________________________________________________________________________________________________
sv_edge_conv_3_shortcut_batchno (None, 16, 1, 24)    96          sv_edge_conv_3_shortcut_conv[0][0
__________________________________________________________________________________________________
sv_edge_conv_3_activation_2 (Ac (None, 16, 8, 24)    0           sv_edge_conv_3_batchnorm_2[0][0] 
__________________________________________________________________________________________________
ch_edge_conv_3_shortcut_squeeze (None, 64, 48)       0           ch_edge_conv_3_shortcut_batchnorm
__________________________________________________________________________________________________
ch_edge_conv_3_mean (Mean)      (None, 64, 48)       0           ch_edge_conv_3_activation_2[0][0]
__________________________________________________________________________________________________
ne_edge_conv_3_shortcut_squeeze (None, 64, 48)       0           ne_edge_conv_3_shortcut_batchnorm
__________________________________________________________________________________________________
ne_edge_conv_3_mean (Mean)      (None, 64, 48)       0           ne_edge_conv_3_activation_2[0][0]
__________________________________________________________________________________________________
sv_edge_conv_3_shortcut_squeeze (None, 16, 24)       0           sv_edge_conv_3_shortcut_batchnorm
__________________________________________________________________________________________________
sv_edge_conv_3_mean (Mean)      (None, 16, 24)       0           sv_edge_conv_3_activation_2[0][0]
__________________________________________________________________________________________________
ch_edge_conv_3_add (Add)        (None, 64, 48)       0           ch_edge_conv_3_shortcut_squeeze[0
                                                                 ch_edge_conv_3_mean[0][0]        
__________________________________________________________________________________________________
ne_edge_conv_3_add (Add)        (None, 64, 48)       0           ne_edge_conv_3_shortcut_squeeze[0
                                                                 ne_edge_conv_3_mean[0][0]        
__________________________________________________________________________________________________
sv_edge_conv_3_add (Add)        (None, 16, 24)       0           sv_edge_conv_3_shortcut_squeeze[0
                                                                 sv_edge_conv_3_mean[0][0]        
__________________________________________________________________________________________________
ch_edge_conv_3_activation (Acti (None, 64, 48)       0           ch_edge_conv_3_add[0][0]         
__________________________________________________________________________________________________
charged_mask (InputLayer)       [(None, 64, 1)]      0                                            
__________________________________________________________________________________________________
ne_edge_conv_3_activation (Acti (None, 64, 48)       0           ne_edge_conv_3_add[0][0]         
__________________________________________________________________________________________________
neutral_mask (InputLayer)       [(None, 64, 1)]      0                                            
__________________________________________________________________________________________________
sv_edge_conv_3_activation (Acti (None, 16, 24)       0           sv_edge_conv_3_add[0][0]         
__________________________________________________________________________________________________
sv_mask (InputLayer)            [(None, 16, 1)]      0                                            
__________________________________________________________________________________________________
multiply (Multiply)             (None, 64, 48)       0           ch_edge_conv_3_activation[0][0]  
                                                                 charged_mask[0][0]               
__________________________________________________________________________________________________
multiply_1 (Multiply)           (None, 64, 48)       0           ne_edge_conv_3_activation[0][0]  
                                                                 neutral_mask[0][0]               
__________________________________________________________________________________________________
multiply_2 (Multiply)           (None, 16, 24)       0           sv_edge_conv_3_activation[0][0]  
                                                                 sv_mask[0][0]                    
__________________________________________________________________________________________________
mean (Mean)                     (None, 48)           0           multiply[0][0]                   
__________________________________________________________________________________________________
mean_1 (Mean)                   (None, 48)           0           multiply_1[0][0]                 
__________________________________________________________________________________________________
mean_2 (Mean)                   (None, 24)           0           multiply_2[0][0]                 
__________________________________________________________________________________________________
globals (InputLayer)            [(None, 11)]         0                                            
__________________________________________________________________________________________________
head (Concatenate)              (None, 131)          0           mean[0][0]                       
                                                                 mean_1[0][0]                     
                                                                 mean_2[0][0]                     
                                                                 globals[0][0]                    
__________________________________________________________________________________________________
dense_1 (Dense)                 (None, 64)           8448        head[0][0]                       
__________________________________________________________________________________________________
batch_normalization_1 (BatchNor (None, 64)           256         dense_1[0][0]                    
__________________________________________________________________________________________________
activation_1 (Activation)       (None, 64)           0           batch_normalization_1[0][0]      
__________________________________________________________________________________________________
dense_2 (Dense)                 (None, 32)           2080        activation_1[0][0]               
__________________________________________________________________________________________________
batch_normalization_2 (BatchNor (None, 32)           128         dense_2[0][0]                    
__________________________________________________________________________________________________
activation_2 (Activation)       (None, 32)           0           batch_normalization_2[0][0]      
__________________________________________________________________________________________________
dense_3 (Dense)                 (None, 16)           528         activation_2[0][0]               
__________________________________________________________________________________________________
batch_normalization_3 (BatchNor (None, 16)           64          dense_3[0][0]                    
__________________________________________________________________________________________________
activation_3 (Activation)       (None, 16)           0           batch_normalization_3[0][0]      
__________________________________________________________________________________________________
dense_4 (Dense)                 (None, 8)            136         activation_3[0][0]               
__________________________________________________________________________________________________
batch_normalization_4 (BatchNor (None, 8)            32          dense_4[0][0]                    
__________________________________________________________________________________________________
activation_4 (Activation)       (None, 8)            0           batch_normalization_4[0][0]      
__________________________________________________________________________________________________
out (Dense)                     (None, 1)            9           activation_4[0][0]               
==================================================================================================
Total params: 38,417
Trainable params: 36,737
Non-trainable params: 1,680
__________________________________________________________________________________________________
Epoch 1/100
8075/8075 [==============================] - 5844s 411ms/step - loss: 0.1009 - val_loss: 0.0844
…
