…
ch_time_distributed (TimeDistri (None, None, 64)     3408        charged_constituents[0][0]       
__________________________________________________________________________________________________
ne_time_distributed (TimeDistri (None, None, 64)     3184        neutral_constituents[0][0]       
__________________________________________________________________________________________________
sv_time_distributed (TimeDistri (None, None, 32)     944         secondary_vertices[0][0]         
__________________________________________________________________________________________________
ch_head (Sum)                   (None, 64)           0           ch_time_distributed[0][0]        
__________________________________________________________________________________________________
ne_head (Sum)                   (None, 64)           0           ne_time_distributed[0][0]        
__________________________________________________________________________________________________
sv_head (Sum)                   (None, 32)           0           sv_time_distributed[0][0]        
__________________________________________________________________________________________________
globals (InputLayer)            [(None, 11)]         0                                            
__________________________________________________________________________________________________
head (Concatenate)              (None, 171)          0           ch_head[0][0]                    
                                                                 ne_head[0][0]                    
                                                                 sv_head[0][0]                    
                                                                 globals[0][0]                    
__________________________________________________________________________________________________
head_dense_1 (Dense)            (None, 128)          21888       head[0][0]                       
__________________________________________________________________________________________________
head_batch_normalization_1 (Bat (None, 128)          512         head_dense_1[0][0]               
__________________________________________________________________________________________________
head_activation_1 (Activation)  (None, 128)          0           head_batch_normalization_1[0][0] 
__________________________________________________________________________________________________
head_dense_2 (Dense)            (None, 64)           8192        head_activation_1[0][0]          
__________________________________________________________________________________________________
head_batch_normalization_2 (Bat (None, 64)           256         head_dense_2[0][0]               
__________________________________________________________________________________________________
head_activation_2 (Activation)  (None, 64)           0           head_batch_normalization_2[0][0] 
__________________________________________________________________________________________________
head_dense_3 (Dense)            (None, 32)           2048        head_activation_2[0][0]          
__________________________________________________________________________________________________
head_batch_normalization_3 (Bat (None, 32)           128         head_dense_3[0][0]               
__________________________________________________________________________________________________
head_activation_3 (Activation)  (None, 32)           0           head_batch_normalization_3[0][0] 
__________________________________________________________________________________________________
head_dense_4 (Dense)            (None, 16)           512         head_activation_3[0][0]          
__________________________________________________________________________________________________
head_batch_normalization_4 (Bat (None, 16)           64          head_dense_4[0][0]               
__________________________________________________________________________________________________
head_activation_4 (Activation)  (None, 16)           0           head_batch_normalization_4[0][0] 
__________________________________________________________________________________________________
head_dense_5 (Dense)            (None, 8)            128         head_activation_4[0][0]          
__________________________________________________________________________________________________
head_batch_normalization_5 (Bat (None, 8)            32          head_dense_5[0][0]               
__________________________________________________________________________________________________
head_activation_5 (Activation)  (None, 8)            0           head_batch_normalization_5[0][0] 
__________________________________________________________________________________________________
output (Dense)                  (None, 1)            9           head_activation_5[0][0]          
==================================================================================================
Total params: 41,305
Trainable params: 40,249
Non-trainable params: 1,056
__________________________________________________________________________________________________
Model: "ch_model"
_________________________________________________________________
Layer (type)                 Output Shape              Param #   
=================================================================
ch_slice (InputLayer)        [(None, 25)]              0         
_________________________________________________________________
ch_dense_1 (Dense)           (None, 16)                400       
_________________________________________________________________
ch_batch_normalization_1 (Ba (None, 16)                64        
_________________________________________________________________
ch_activation_1 (Activation) (None, 16)                0         
_________________________________________________________________
ch_dense_2 (Dense)           (None, 32)                512       
_________________________________________________________________
ch_batch_normalization_2 (Ba (None, 32)                128       
_________________________________________________________________
ch_activation_2 (Activation) (None, 32)                0         
_________________________________________________________________
ch_dense_3 (Dense)           (None, 64)                2048      
_________________________________________________________________
ch_batch_normalization_3 (Ba (None, 64)                256       
_________________________________________________________________
ch_activation_3 (Activation) (None, 64)                0         
=================================================================
Total params: 3,408
Trainable params: 3,184
Non-trainable params: 224
_________________________________________________________________
Model: "ne_model"
_________________________________________________________________
Layer (type)                 Output Shape              Param #   
=================================================================
ne_slice (InputLayer)        [(None, 11)]              0         
_________________________________________________________________
ne_dense_1 (Dense)           (None, 16)                176       
_________________________________________________________________
ne_batch_normalization_1 (Ba (None, 16)                64        
_________________________________________________________________
ne_activation_1 (Activation) (None, 16)                0         
_________________________________________________________________
ne_dense_2 (Dense)           (None, 32)                512       
_________________________________________________________________
ne_batch_normalization_2 (Ba (None, 32)                128       
_________________________________________________________________
ne_activation_2 (Activation) (None, 32)                0         
_________________________________________________________________
ne_dense_3 (Dense)           (None, 64)                2048      
_________________________________________________________________
ne_batch_normalization_3 (Ba (None, 64)                256       
_________________________________________________________________
ne_activation_3 (Activation) (None, 64)                0         
=================================================================
Total params: 3,184
Trainable params: 2,960
Non-trainable params: 224
_________________________________________________________________
Model: "sv_model"
_________________________________________________________________
Layer (type)                 Output Shape              Param #   
=================================================================
sv_slice (InputLayer)        [(None, 10)]              0         
_________________________________________________________________
sv_dense_1 (Dense)           (None, 8)                 80        
_________________________________________________________________
sv_batch_normalization_1 (Ba (None, 8)                 32        
_________________________________________________________________
sv_activation_1 (Activation) (None, 8)                 0         
_________________________________________________________________
sv_dense_2 (Dense)           (None, 16)                128       
_________________________________________________________________
sv_batch_normalization_2 (Ba (None, 16)                64        
_________________________________________________________________
sv_activation_2 (Activation) (None, 16)                0         
_________________________________________________________________
sv_dense_3 (Dense)           (None, 32)                512       
_________________________________________________________________
sv_batch_normalization_3 (Ba (None, 32)                128       
_________________________________________________________________
sv_activation_3 (Activation) (None, 32)                0         
=================================================================
Total params: 944
Trainable params: 832
Non-trainable params: 112
_________________________________________________________________
Epoch 1/100
8075/8075 [==============================] - 428s 50ms/step - loss: 0.0892 - val_loss: 0.0834
Epoch 2/100
8075/8075 [==============================] - 419s 50ms/step - loss: 0.0830 - val_loss: 0.0822
…
